results/modelV2.pkl (torch_old, 58293 bytes, 6 tensors)

Conv1.weight f4 [16, 3, 5, 5]
00000000: 81ab ccbd 7813 033d aa02 e1bd c320 01be
00000010: 1edc 3cbe f8aa a7bd 0b06 a33c 3b92 81bd
00000020: 7d3b 35be abd9 aabd 48ff a5bd c9cd dfbd
00000030: fd7d fabd 7aa3 16be b045 6ebd 4700 0abd
00000040: 5c24 77bd 9bc0 fa3c 720c 5cbc c519 c13c
00000050: 5b45 513c 9e83 01be e8d5 d3bd 5f0d 95bd
00000060: 7523 e9bd 23e0 b6bd ea95 ce3c d6de 003e
00000070: bfc4 073e 29c4 ad3d 94a0 363d 3af2 473d
00000080: 3b11 66bd a698 d03b f285 543d bd73 4abc
00000090: ba5c 59bd 1180 32bd f79e dd3d bbc2 afbc
000000a0: f174 1c3d f997 4c3c 219f ec3d 713d 7a3d
000000b0: 4c7c 2fbc 3055 db3d 02f0 5e3d 22fc 093d
000000c0: e488 853b d329 d63d 353d 0c3d 3b61 86bc
000000d0: 3734 113e 6f25 293e ebb8 e5bc 13ed 093d
000000e0: 66a0 b3bc 2878 323e 1bbb 293e f52c dd3d
000000f0: a952 15bd 54cc 0e3e 18a6 0b3d d5b4 a03c
00000100: 00b4 103d 463a 1e3e e64b 513d 0ed0 fb3d
00000110: b597 d63d dee4 363d 11a2 7c3d fce3 333d
00000120: 32a5 433e 37e5 033e 569b 563d 1b72 5e3d
00000130: 6a37 913d 2feb 373d 7ffd 953d 1230 debd
00000140: e0d1 22bd b09d 493d c10e 18bd 201f 943d
00000150: 96e4 dbbd 3bc3 b2bd 8baf bc3c 816a 89bb
00000160: 5f49 babd ef51 633d 2ce8 5bbb 17ea 943c
00000170: 376b b5bd 6d0b d63d c249 273b 42ee bf3c
00000180: d56e 2abd a83c 7abc 10e0 353d 8290 de3d
00000190: fce0 c7ba 5551 98bd 3704 aa3d b378 b6bd
000001a0: bf84 963c 98a2 9d3c 8c38 c53d cceb 18bd
000001b0: 351f 21bd 237d af3d b224 123d 9dc3 a1bd
000001c0: 5de6 bdbd 41ce 75bd e73f 94bd bfe5 6a3d
000001d0: 4ff2 193d 3ec9 be3d e098 c73d 464b ca3d
000001e0: b07a d7bd d714 bdbc 4ceb 4bbd d5f2 393d
000001f0: b79f 8ebd 51c7 e3bc 39a1 5fbd ec8b b53c
00000200: 763b 4b3d e750 a6bd b870 00bd e5c4 a63d
00000210: 51f7 f4bc d0fd 8fbd 05a5 d3bd aa48 963d
00000220: a6d3 953d 4fdc 37bd bf2f ed3c 5db1 d2bd
00000230: f39d b03c 0273 aa3c e332 c03d f894 91bd
00000240: e03d 93bd 8818 583d 0e99 eabd 37f6 e2bd
00000250: d7be 753d 8c0d ce3d 09c7 6ebd d3bf 83bd
00000260: 26cb cd3d da1d 01bc 6a26 a63d c1df 103e
00000270: a76b e73d 01e5 893d 9923 6e3a 8379 913d
00000280: fb1b 053e 5b9c 12bd 37f7 b43d 2a82 8f3d
00000290: e7c7 fd3d e7dd 0e3e cd28 3fbd be2c 20bd
000002a0: 6dad ce3d 6c87 82bd bc9a 03bd 1065 c43c
000002b0: 8eae 8b3c 67c4 db3d 611c 963c 233e e23d
000002c0: ba78 443c ce52 983d c881 c1bb 39cc 3a3d
000002d0: 813c 8e3d 10a4 96bd 2a9b e93b 644c 84bd
000002e0: ce9e d53d 9bf5 4e3c 20b3 ae3b fea0 84bd
000002f0: 5567 e8bd f39d ad3c 5347 883d 79a2 343d
00000300: 4483 2f3c 27a3 283d cf77 653d fc93 af3c
00000310: 5419 a33d 0b77 bbbd d9ed 66bd 2282 c2bd
00000320: f56d 03bd a99d 9d3d 261c d8bd 46b4 a33d
00000330: 5e3f cbbc 4d16 a43d 7422 ba3d 86ea cdbc
00000340: 08d3 c1bd 6c36 07bd d324 07be ec6b c5bd
00000350: 283d 53bd 3c72 b3bd 94c1 a6bd 51d4 7ebd
00000360: e727 9abd 2b96 a0bd 9a03 89bc 3f91 85bb
00000370: 3167 a0bd 7c74 f1bd c195 463d d5f2 453d
00000380: 6471 2bbd 3f78 84bd 8e16 a03c 6218 c5bc
00000390: 353f 0abe a3f0 d1bd 5477 15bd 6f3c e9bd
000003a0: 68dd 623c b95a 33bd e92d a03d 4153 cdbd
000003b0: d40d 3e3c f8b3 10be bdf8 02be 33a8 e2bc
000003c0: 350c 9e3d bdd0 19bd 8505 bbbd e42a 863d
000003d0: cfb9 3abc c5cd f4bc de1a f43a c561 01be
000003e0: a7a7 a03c 0738 6d3d 3ce9 fb3c ab3e c93d
000003f0: 9f95 37bc 1de6 debb 3b06 1d3c f339 6fbd
-0.09993649 0.03200099 -0.10986836 -0.12610154 -0.18443343 -0.081869066 0.019900342 -0.063267194
-0.17698474 -0.08342298 -0.08105332 -0.10927922 -0.122310616 -0.14710799 -0.058171928 -0.03369167
-0.06033741 0.03060942 -0.013430702 0.023571858 0.012772883 -0.12647864 -0.10343534 -0.07277941
-0.11383716 -0.089294694 0.025217969 0.12585005 0.13258646 0.0848468 0.044586733 0.04881499
-0.056168776 0.0063658534 0.051885553 -0.012356696 -0.053066947 -0.043579165 0.10821336 -0.02145516
0.03819746 0.012487405 0.11553789 0.06109375 -0.010710787 0.107096076 0.054428108 0.03368772
0.0040751565 0.10457196 0.03423806 -0.016403785 0.14180075 0.16518186 -0.028042277 0.033673357
-0.02192707 0.17428648 0.16575281 0.107995905 -0.036455784 0.13945132 0.034093946 0.019617477
0.03532791 0.15451917 0.051097773 0.12295543 0.104781546 0.04465186 0.061677996 0.043918595
0.19105986 0.12880407 0.052394234 0.05430804 0.070906475 0.044902023 0.07323741 -0.108490124
-0.039750934 0.04922265 -0.037123445 0.07232499 -0.10736959 -0.087286435 0.023032924 -0.0041936045
-0.09096026 0.05549806 -0.0033555133 0.018178029 -0.0885834 0.10451398 0.002552614 0.02342904
-0.041609604 -0.015273251 0.044403136 0.108674064 -0.0015249546 -0.07437388 0.08301585 -0.0890974
0.018373845 0.01924257 0.09629926 -0.03733425 -0.039336402 0.0856879 0.035679527 -0.078986384
-0.09272454 -0.060011152 -0.07238751 0.05734801 0.0375846 0.09315728 0.097459555 0.098776385
-0.10521448 -0.023081226 -0.049784943 0.0453976 -0.06964057 -0.027805002 -0.054597113 0.022161447
0.049617253 -0.081209 -0.031357497 0.081430234 -0.029903086 -0.07030833 -0.10334209 0.07338078
0.07315759 -0.044887837 0.028953431 -0.102877356 0.021559691 0.020806793 0.09384706 -0.07108492
-0.07189536 0.05275777 -0.11454974 -0.11082118 0.059996452 0.100611776 -0.058295283 -0.06433072
0.10048513 -0.007880652 0.08112796 0.14147855 0.1129983 0.06733132 0.0009084284 0.07103255
0.12998955 -0.035793643 0.08836215 0.07007249 0.12391644 0.13951837 -0.04666977 -0.03910517
0.10091672 -0.06373486 -0.032129988 0.023973972 0.017051008 0.1073082 0.018324079 0.11047008
0.011991674 0.07437669 -0.0059053637 0.04560492 0.06945134 -0.07355511 0.0071290927 -0.06459883
0.1043068 0.012631799 0.005331412 -0.06476019 -0.11347834 0.02119348 0.06654229 0.04410026
0.0107124485 0.04117122 0.05602246 0.02143287 0.07963815 -0.09153565 -0.056379173 -0.09497477
-0.032087285 0.07696087 -0.10552244 0.07993369 -0.02481049 0.08012066 0.09088603 -0.025136244
-0.09464079 -0.033010885 -0.13197641 -0.09639725 -0.051571995 -0.08762023 -0.08142391 -0.0622142
-0.07527142 -0.07841142 -0.01672535 -0.0040761526 -0.07832182 -0.11789796 0.04848266 0.048327286
-0.041856185 -0.064682476 0.019542005 -0.024059478 -0.13500674 -0.10250976 -0.036490753 -0.1138848
0.013846733 -0.04378769 0.07821257 -0.10025645 0.011599977 -0.14131153 -0.12790199 -0.027668094
0.07717172 -0.037552584 -0.09131912 0.065511495 -0.011396839 -0.029883275 0.001862373 -0.12634952
0.019611193 0.05791476 0.030750863 0.09826406 -0.011205106 -0.006802334 0.009584005 -0.058404874

Conv1.bias f4 [16]
00000000: 666b 833d eccd 7b3d 546f 8c3d 07a2 e8bd
00000010: 3636 dd3a db37 97bd 5c96 3dbc 56c5 683c
00000020: 10b7 b53d a470 54bd 0d27 93bc c7f7 ba3d
00000030: 9a2a 23bd d62d a73d 6335 d1bd bbe2 183d
0.06416969 0.06147568 0.06857172 -0.11359029 0.0016877118 -0.073837005 -0.011571493 0.014207205
0.08872807 -0.051865235 -0.017962957 0.09129291 -0.03983555 0.081630394 -0.10215261 0.037325602

Conv2.weight f4 [32, 16, 5, 5]
00000000: 84c2 49bb 1c76 e2bc 3fcf 043d 47ac 97bc
00000010: 158c 3dbd f7f5 0e3d 9518 d3bc a191 e5bc
00000020: 8cad 4ebd 3aa3 3c3c bede 69bd d155 dabc
00000030: b91e 76bd 32f3 e13c 93f3 d83b 7d48 0abd
00000040: 1af9 0dbc e47b 5c3c 6287 84bd 3d92 e6bc
00000050: 8b23 57bd c1e2 6fbd e2e4 a2bc c6bd a9bd
00000060: 436a a0bd d739 023d 6f5a b2bc 3208 e23c
00000070: 7f38 2c3d 81f2 49bd a66f 3a3d 6aa4 c33c
00000080: 317c 8d3c 351b 2abd a010 0bbc 3f7e 3abd
00000090: d9a7 febc baf2 873c be14 42bd 04c1 0a3d
000000a0: 1fb5 afba a704 a9bc c3ff 03bd d621 553c
000000b0: e193 a73c 2a52 eabb 5d1f a03b 11ed 52bd
000000c0: c023 d2bb 4e38 953c 0316 3bbd d0cc 443d
000000d0: 39c9 7cbb 56bd b83c b467 a8bc 97ec 20bb
000000e0: 9754 a5bb 1734 17bc e451 163d 5686 103d
000000f0: 6ab3 21bd 692a e73c 3882 353d 9084 2f3d
00000100: 6c45 913b 3c08 d4bc a668 9bbc 257b 78bc
00000110: c45d 593c 6901 663d 0342 24ba 60f0 25bd
00000120: fd32 2d3d 27eb fc3c 6599 13bd eb33 343d
00000130: 915f c93c b1c1 0d3d 8606 2c3d 4667 84bc
00000140: de28 c43c 148b 943b d72c e83c ff02 923a
00000150: e0e4 28bd 4074 933b 400f f7bb 3c66 dcbc
00000160: a358 873c 29a3 b23c 3c64 7abd c5e5 d53c
00000170: a2a9 373c e074 04bd 8a36 d23c 4ebf 06bd
00000180: ad9b 843b c1ef 84bd 13d7 13bd d676 71bd
00000190: 75a9 663d 6e88 b5bc 6d34 c1bc c87e 093d
000001a0: 86d4 a43d f651 d5bc 1b45 bbbc b8cc 0b3d
000001b0: ebeb 673d 2b98 2e3c 3ba3 9c3b fbdf 4a3d
000001c0: c580 493d 2e67 49bc 8155 b73d 5b3a 743a
000001d0: 6d15 c4bb e1d8 e13a 5408 eb3c dd9c 043d
000001e0: 8b7b 013d 1dd6 163d 6491 c73c a30c 9b3d
000001f0: 2408 5f3d 925b c53c f3eb 42bc bc9d 0bbb
00000200: e963 39bd 09bf 0ebc e834 3dbc 7595 5839
00000210: a2f7 8fb9 227f 0e3c c2e6 eb3c 63a3 bcba
00000220: 7835 663c 1ef0 243d fe78 8fb9 0f68 a63c
00000230: f40f 23bd e19d 533c 418a 3abd 8248 2cbd
00000240: 0ac5 903b f3cf 0ebd 93e0 c53c c4ad aabc
00000250: 7c2d cebb bcbe 8fbc 3b79 383d a010 173d
00000260: 18b4 b9bc 1925 5c3d dafc b4bc ecc7 493d
00000270: 761c a53c 9488 cb3c b1eb fa3b 4b5d 3fbc
00000280: bb7a f33b 243b d4bc 58c1 0abd 37ef 9a3c
00000290: 7f41 c4bc 430f e63b 4594 fdbc cf12 253d
000002a0: 5cfe ccbc 60b1 2b3d ab27 f0bc f72b 1b3d
000002b0: 5c12 05bb 0532 3f3b 4c51 25bb e704 993b
000002c0: 69ba 323c ff4f 02bd 0817 47bc 0d66 343d
000002d0: 7037 a2bc 573d 533a e424 643c 4d3f 79b9
000002e0: 4ced 49bd ecbb 223d 5327 25bd 1ab5 0dbd
000002f0: c06c d7bb f563 2c3d 4769 9abc 43f4 07bd
00000300: 8ade 1abd 2093 0f3d 5cb0 38bd ab30 49bd
00000310: d69a 2ebc 070c 92bc ce09 0b3c 56ff 29bd
00000320: 1b86 8cbc 6f3c 453d b2a6 553d d917 0c3c
00000330: 85f0 f9bc e46d 5fbb b150 9e3c f656 dcbc
00000340: 4393 813c 2ff9 9bbb 8cd8 d63b 7ab3 4c3c
00000350: 3764 06bd 0e9c 62bc 56e5 063d 0ca4 313d
00000360: 7270 003d a19c 16bd 3785 3a3d 2cfc 1a3c
00000370: e700 fc3c 6bf3 a03b 2264 1a3d e453 253d
00000380: 11db 263b ba9d 37bd 286f 56bd 61f9 db3c
00000390: 4e1d 4fbc cae8 49bd 451a 12bd 16ec e03c
000003a0: 3595 983c 0d21 4dbb 7aee 233c ceea e03a
000003b0: c526 1abd 85a9 a23c 6da1 2abd e160 16bd
000003c0: 09ec 913c 5286 e3bc 46ca 69bd 97da 46bd
000003d0: d591 22bd dee1 1cbd 8ef3 a0bd fe4c 2abc
000003e0: ff4b 20bd a0f8 30bd 8faf c23b 41c4 efbc
000003f0: cda0 fe3c 2a7f 6a3c 26c4 29bd fe34 6cbd
-0.0030786106 -0.02764421 0.032424208 -0.018514765 -0.04627617 0.03490254 -0.025768558 -0.028023543
-0.050458476 0.011513526 -0.05709719 -0.026652249 -0.060087893 0.027581785 0.006620833 -0.033760536
-0.0086653475 0.013457272 -0.06471135 -0.028145904 -0.05252413 -0.05856586 -0.01988453 -0.082881495
-0.07832768 0.03179344 -0.021771638 0.027591798 0.042046066 -0.049303535 0.045516632 0.02388211
0.017271133 -0.041529853 -0.00848785 -0.045530554 -0.031085895 0.016595233 -0.047383063 0.03387548
-0.0013405419 -0.020632101 -0.032226335 0.013008555 0.020456256 -0.007150908 0.0048865513 -0.051495615
-0.006412953 0.018215325 -0.04567529 0.048046887 -0.0038572086 0.02255122 -0.020557262 -0.002455508
-0.0050454843 -0.009228728 0.03669919 0.035284363 -0.039477743 0.028218465 0.04431364 0.04285103
0.0044333246 -0.025882833 -0.018970799 -0.015166079 0.013266984 0.05615369 -0.000626594 -0.040512443
0.042284954 0.030873848 -0.03603496 0.043994825 0.024581702 0.034608547 0.04199841 -0.016162526
0.023945268 0.004533181 0.028341694 0.0011139809 -0.041233897 0.004499942 -0.0075396597 -0.026904218
0.016521757 0.021806316 -0.061130747 0.02611054 0.011209877 -0.032338023 0.025660772 -0.032897286
0.0040468783 -0.06491042 -0.036093783 -0.05895122 0.05631395 -0.022159781 -0.023584569 0.033568174
0.08048348 -0.026040059 -0.0228601 0.034130782 0.056621473 0.010656397 0.004780201 0.04953001
0.04919507 -0.012292666 0.089518555 0.0009316557 -0.0059839995 0.0017230773 0.028690495 0.03237616
0.03161196 0.036825288 0.02436132 0.0757077 0.054451123 0.024091516 -0.011897075 -0.0021303734
-0.045261297 -0.0087125385 -0.011548258 0.00020655042 -0.00027459586 0.008697303 0.028796557 -0.0014391955
0.014050834 0.040268056 -0.00027365232 0.02031329 -0.039810136 0.012916059 -0.045542005 -0.042061336
0.00441802 -0.034866285 0.024154937 -0.020834811 -0.0062920433 -0.017547004 0.04503749 0.03688109
-0.022668883 0.053746317 -0.022093225 0.049262926 0.020155173 0.024845399 0.007657491 -0.011679958
0.007430402 -0.025907107 -0.033875793 0.018912895 -0.023957012 0.0070208623 -0.03095449 0.04030114
-0.025023632 0.041917205 -0.02931579 0.037883725 -0.0020305132 0.00291741 -0.0025225459 0.004669774
0.010908701 -0.03181457 -0.012151487 0.044042636 -0.019801825 0.00080581516 0.013924811 -0.00023770072
-0.04929857 0.039729998 -0.040320706 -0.03459654 -0.0065742433 0.042087514 -0.018849028 -0.03319193
-0.037809886 0.03505242 -0.045090064 -0.04911868 -0.010657033 -0.017828 0.008486224 -0.041503273
-0.01715379 0.048153337 0.052160926 0.008550608 -0.030510196 -0.00340926 0.019325586 -0.026896935
0.01581729 -0.0047599296 0.006556576 0.012493962 -0.032810416 -0.013831152 0.032933556 0.043369338
0.031357236 -0.036770467 0.0455372 0.0094595365 0.030762149 0.00491183 0.03769315 0.040363207
0.0025460164 -0.044828154 -0.0523521 0.026852312 -0.012641264 -0.04929427 -0.035669584 0.027456325
0.018625835 -0.0031300217 0.010005588 0.0017159821 -0.03763463 0.019856224 -0.041657854 -0.036713485
0.017812746 -0.02777401 -0.05707767 -0.048548307 -0.039689858 -0.03830134 -0.07858954 -0.010394333
-0.039134976 -0.043205857 0.0059413384 -0.029268386 0.031082535 0.014312545 -0.041446827 -0.057667725

Conv2.bias f4 [32]
00000000: 9782 08ba 178c 543d 2955 1cbd e378 17bd
00000010: bc33 ec3b 2e43 faba 49bb 6bbd cf65 373d
00000020: 6e65 693b ec74 0a3d 4cc7 45bd 24f4 853d
00000030: 80a9 9c3d 3c3a 143c 0944 28bd ea76 39bd
00000040: 9855 4abb 0e9f dabc f50d 0ebd f77b 183d
00000050: 3d74 a93c 5b1e 06bd 0f95 ca3c c39c 39bd
00000060: d9ae 843d 4c84 15bd 43d3 903c 34e0 bebb
00000070: 1938 10bd 27f6 023c e243 d83c 81c7 263d
-0.00052074477 0.051891413 -0.038167153 -0.03698052 0.0072083157 -0.0019093507 -0.057551656 0.044774827
0.0035613435 0.03380291 -0.048285767 0.06540707 0.07649517 0.009047087 -0.04108051 -0.04527942
-0.0030873772 -0.026687171 -0.03468128 0.037227597 0.02068531 -0.032743793 0.02472928 -0.045315515
0.06478662 -0.03650312 0.017678862 -0.005825067 -0.03520975 0.007993258 0.026399557 0.040717606

l1.weight f4 [2, 128]
00000000: 5cae ad3d 411b ca3d 26cc 1ebe ff1a 44bd
00000010: 2eb8 adbc c76e fc3d 42ab 033e c115 203e
00000020: 3ca2 f53c 61c4 903d 2749 083d 8ff5 a83c
00000030: 7a08 99bc 8520 293d 210e 683b 2ed3 cabd
00000040: f80a 58bd a11c 393d 75c8 98bd 47e9 5dbc
00000050: d14a a23d 32f9 443d 9605 58bd a703 383d
00000060: 83d8 af3d 30bc 2cbc 12e2 a63d 6e42 433b
00000070: f7bc 673a d220 11bd 3d88 d0bc 1b23 92bd
00000080: cf05 8e3d 1ee8 29bd 0c3b 9ebd c1f4 3bbd
00000090: ca18 f73c df00 08bd b730 74bd 745b eabb
000000a0: 8bd9 833d a4a0 d83d 0d84 e73b 42b5 6d3a
000000b0: 1e9e 9e3e 0afd 693e 867c 9fbe 8300 adbe
000000c0: 6553 2dbc c7b8 7dbd 11ba c13d a440 bb3d
000000d0: d818 423d f8e0 54bc 1413 983c af3c 0c3d
000000e0: d5b5 263d dc87 a13d 82fd b9bc af36 923c
000000f0: 6b9f 023c 8e28 76bd 2526 993d adf3 80bd
00000100: 1601 d03d 76b2 8f3d 6a92 27bd 5b0d 0ebe
00000110: 1bc4 85bd 7258 0cbc 7679 263d 1d5d 8f3d
00000120: e4e7 2d3d 9b5a 3e3e b044 d73d 222c 523e
00000130: 2954 ab3c eb28 60bd a776 05bc a9ae 7a3c
00000140: abf5 a23d 26c3 19bd 8a06 8e3c f4ba 0abd
00000150: e0f7 9c3d ab01 84bd 9294 9d3c 3ba8 aebd
00000160: bb53 90bd 466c 0d3d 17ea 97bc 783d 9e3d
00000170: faab 9b3c bf42 493d 4dc1 983d af49 1ab9
00000180: 896f 32bd 0068 123c a2f8 6b3d 6984 8c3d
00000190: d347 9b3d 5da5 883d c8f3 b3bd 542a a33d
000001a0: 1fee 913d e5ad 1ebd 0a42 c7bd b93d af3c
000001b0: 55b5 bebc b287 c53d f3e3 3dbc a749 1ebe
000001c0: bd96 dd3d d8ee e03d 5e31 9f3d bc16 903d
000001d0: da80 05bd d7d1 493d bb3e 703d a4b7 96bd
000001e0: efb7 babb 6843 91bc 64df 273d 6ab5 1b3d
000001f0: 589b da3c e16f c53d 4602 773d dc80 1b3e
00000200: 720c 0fbe 1e79 0cbe 4f12 0a3e eba6 743d
00000210: 4acd 38bc 9990 bdbd aad3 e4bd 2193 4cbb
00000220: 2b5a 863d 0817 583c 09c0 393c fd3d c2bc
00000230: 6248 193c ca7c ccbc df4a a5bd 3c9d 593d
00000240: 0f23 833d 7a48 dcbd a21a 80bd f23d 99bd
00000250: 1ee3 dcbd aea5 7dbd 6edf 77bc 992b 923d
00000260: 869c 6fbd 71d6 46bc 7b26 a9bd 023d 4e3d
00000270: 3a20 39bc e1b4 24bc c6ae 3dbd 16f7 e2bb
00000280: f810 6c3d aa17 28bd 973c 553d f633 a13d
00000290: 1a13 90bd 23fe e33b 3d3e 913d de69 873d
000002a0: 3f2d e6bd 12a6 95bd 6883 60bd 7b90 8dbd
000002b0: 96b7 46be d2cf 8cbe ba60 953e a91a a83e
000002c0: 810b 44bc 821a d43c 843b cdbd db77 b7bd
000002d0: 738c c63c ea65 97bd 9656 f3bc b9eb fb3c
000002e0: aa6a fb3c 7782 5bbd be9c 4a3d 60da 133d
000002f0: e8c0 a7bd 5e1a 1bbd 96b3 833c 4585 16bc
00000300: 598a f13c 15ff 433d 2b0b 8b3d c3ff 7f3d
00000310: 8d0d b93c c239 55bd 1880 65bd 091d 83bc
00000320: 4bc4 53bd 11f5 1ebe 1d00 4cbe bbb2 1fbe
00000330: c19b 14bd abe0 b3bd a7de c9bc bab9 6ebd
00000340: 3296 7c3c 1faa 173d 8501 54bc e464 663d
00000350: 9d8e 6a3d f6b2 afbd d9ad 64bb b1c7 d2ba
00000360: 7539 ccbc 6783 a33c 10cc d5bc 254b 9ebd
00000370: b068 a7bd 93d4 453d c4fb d4bc 28ba d6bd
00000380: 87e0 b13d 2ab9 193d 9df2 abbb ae12 5a3a
00000390: d1e6 093d 8a62 bebc dda3 403d 4d72 753d
000003a0: c036 b4bd 4136 d5bc e0c0 a23d 9f82 abbd
000003b0: 7445 cb3c 610c b8bd fe2d 053e 0df7 0d3e
000003c0: 00a0 5cbd a8fe 8a3c f166 1ebd bb65 f3bd
000003d0: 9677 0b3d e8a5 083c 9079 8d3d a444 01bc
000003e0: 7e5d 723d d1f0 693d 2c99 dfbc cf75 19bc
000003f0: 0cde bebc 2d84 62bd 1aa8 e0bd d979 36be
0.08480522 0.098684795 -0.15507564 -0.047877308 -0.021205988 0.123258166 0.12858298 0.15633298
0.029984586 0.07068706 0.03327289 0.020624904 -0.0186808 0.04129078 0.0035408812 -0.099035606
-0.052744836 0.04519332 -0.07460109 -0.013544387 0.07924426 0.048089214 -0.052739702 0.04492536
0.08586218 -0.010542914 0.08148588 0.0029794234 0.00088401086 -0.03543169 -0.025455588 -0.07135602
0.06934702 -0.04148113 -0.07726106 -0.045887712 0.030163188 -0.033203956 -0.05961677 -0.0071520153
0.064379774 0.10577515 0.007065302 0.0009067842 0.3098001 0.22850433 -0.3114969 -0.33789453
-0.010578965 -0.061943796 0.094593175 0.091431886 0.047386974 -0.01299309 0.018563785 0.03423756
0.040700752 0.07887241 -0.02270389 0.01784834 0.0079725785 -0.06009727 0.074779786 -0.062964775
0.10156457 0.070164606 -0.040911116 -0.13872282 -0.06531545 -0.008566009 0.040643178 0.07000182
0.042457476 0.1858925 0.10511148 0.20524648 0.020914154 -0.054726522 -0.008145965 0.015300431
0.07957014 -0.037539624 0.017337102 -0.0338697 0.07664466 -0.06445631 0.019235883 -0.08528181
-0.0704722 0.034527086 -0.01854424 0.07726568 0.019002903 0.04913592 0.07458744 -0.00014714034
-0.0435634 0.008935928 0.05761016 0.06861193 0.07582059 0.066721655 -0.08786732 0.07967058
0.07125496 -0.038740057 -0.09729393 0.021391736 -0.023279825 0.096450225 -0.011589992 -0.15457784
0.10819767 0.10983056 0.07773088 0.07035586 -0.032593586 0.049272384 0.058653574 -0.073592454
-0.005698196 -0.017732337 0.040984526 0.038014807 0.026685402 0.0964048 0.060304902 0.15185875
-0.13969591 -0.13718078 0.13483547 0.059729498 -0.0112794135 -0.092560954 -0.11173184 -0.0031215625
0.06560167 0.013189085 0.011337289 -0.023711199 0.009355636 -0.024961848 -0.08070921 0.053128466
0.06403171 -0.10756011 -0.0625508 -0.07482518 -0.10785507 -0.061925583 -0.015128953 0.07137222
-0.05849888 -0.012136088 -0.08259293 0.05035115 -0.011299187 -0.0100528905 -0.046309255 -0.0069264276
0.05763337 -0.041038193 0.052059736 0.07871239 -0.07034893 0.0069577857 0.07091949 0.066119894
-0.11239099 -0.07307066 -0.05481282 -0.06912323 -0.1940597 -0.27502304 0.2917536 0.3283284
-0.011965633 0.025891546 -0.10021117 -0.089584075 0.024236893 -0.073924854 -0.029704373 0.03075205
0.03069051 -0.053591218 0.049465887 0.03609693 -0.08191091 -0.037866943 0.016076844 -0.009187047
0.029484915 0.047850687 0.067892395 0.062499773 0.02258947 -0.052057035 -0.056030363 -0.016005056
-0.05170087 -0.15523173 -0.19921918 -0.15595524 -0.03628135 -0.087830864 -0.024642302 -0.05828259
0.015416669 0.037027474 -0.012939815 0.05624856 0.057264913 -0.08579056 -0.003489366 -0.0016081241
-0.024929741 0.019960118 -0.026098281 -0.077291764 -0.081742644 0.04829843 -0.025998957 -0.10484725
0.08685403 0.0375301 -0.0052474276 0.00083188235 0.03366739 -0.023240346 0.047031272 0.05992346
-0.08799505 -0.026026847 0.07946944 -0.08374523 0.024813391 -0.08986736 0.13005826 0.13863774
-0.053863525 0.016967133 -0.03867239 -0.11884638 0.034049593 0.008340336 0.06907952 -0.0078899
0.059171192 0.057114426 -0.027294718 -0.009366467 -0.02329924 -0.055301834 -0.10969563 -0.17819919

l1.bias f4 [2]
00000000: f80d 9fbd e1b1 683e
-0.07766336 0.22724105
