results/modelV1.pkl (torch_old, 58293 bytes, 6 tensors)

Conv1.weight f4 [16, 3, 5, 5]
00000000: 0789 d03d 3886 863d 00ef f63d efcf 223e
00000010: ada3 023d 0bf0 073e 1802 bb3d ba56 263e
00000020: 405b cc3d 0e0d 413e 47a5 963d f828 2a3e
00000030: 9902 1d3e 3cb7 02bd 1b10 043d 6e73 143e
00000040: bb87 e1bc c1a2 5b3d 3498 99bc 759d 373e
00000050: 306f fd3d 1a3b f03c 90f6 3a3e eb26 bc3d
00000060: c9dd 823d bb6a bd3d dd1f 4d3c 0baa 653b
00000070: 87da b93c d386 5a3d 3434 d93d db3b 92bd
00000080: dd10 e13d d2c9 f6bd a283 d83c afb5 b13c
00000090: a173 263d 4369 e6bd 13c7 98bd 8ec0 4d3d
000000a0: 8375 e7bd 228b e5bd d5e6 ad3c 7275 00be
000000b0: b3f3 86bd 4b19 f4bd 02c1 5c3d 90de c63b
000000c0: cdea a53d 066f 80bd 6a46 61bd ca21 febc
000000d0: 5438 2bbc 312b 55bd 6277 6bbd 9659 b2bd
000000e0: dab3 80bd d413 2ebe c275 14be c3cf 8bbd
000000f0: a046 24be 5312 87bd 4e96 983c 069f ac3c
00000100: efb7 27be d6f4 8cbd 65bf b8bd fce0 fb3c
00000110: b25b 83bd 4818 cc3c d5dc 3abe 7251 e9bd
00000120: ab46 2e3c eca1 65bd ad5f 50be 439c 2fbd
00000130: bf87 c63d 2a61 2b3e 7110 c03c 013e 22bd
00000140: 791e 283e 4ac8 05bd 374f e63c 2000 f23d
00000150: c092 3b3d cc8d 223e 2d14 dc3d a456 ce3d
00000160: b075 263e ba51 3e3d f109 efbc 7e98 dc3d
00000170: d507 1c3e 618c c43d a2ac 063d 6525 1a3e
00000180: 40c2 a83c 6e62 4a3c 6b6e de3d 017a b13d
00000190: 31ec b13d 8e5c adbc 4b75 a03d 77ca 0bbd
000001a0: 537b b8bc fd92 5c3d 6e82 f83c b51c d63d
000001b0: 8e19 b73d 115c 65bd 5d12 f0bd 85a1 1d3b
000001c0: ca21 2dbd 1408 383d 34ec 35bd ab70 9ebc
000001d0: 8144 80bd dd19 dbbd f5cd f5bd 5f02 dabc
000001e0: 8811 dcbd 1fb9 d8bc f4d2 ecbc 9476 f0bd
000001f0: eae5 453c 5410 cdbb f847 3c3d 5ddf 44bd
00000200: 5bee 5a3c fc56 d03c 3a49 f63c c0c3 9f3b
00000210: 0b3b debd 3e41 cabc c22f 8cbd 8649 bfbd
00000220: 19ac 07be 08bc 10be 4ce1 c0bd 1dc1 253c
00000230: 5819 1a3d 2f2a 0dbd 8821 e3bd 0436 d03b
00000240: e33e 2f3d 9eab 21be e80d 2dbe 0313 f53c
00000250: dbfe d5bd bdc2 2d3d 468e dbbd 6b15 00bc
00000260: 7083 bdbd 4d3d c4bd 43de af3d 01d9 dcbd
00000270: d688 973c 7c49 003d a1c2 96bd 694e abbd
00000280: 49ba 1d3c 1bf0 02bd 9df5 de3d 2e83 dfbc
00000290: e4b2 d6bd 7eba 70bd 2af2 723b a069 1fbd
000002a0: 674f 6d3c 303f cdbd 7ce7 57bd 51c8 c03c
000002b0: bc59 3d3d c0f8 ca3d 8b78 de3d 468f c63d
000002c0: 5644 77bd 805d fbbc 47bd d63d 1302 08bd
000002d0: 0155 20bb d853 e6bd f0c8 9cbd c801 48bc
000002e0: fde1 b33c 3dd9 f7bc 9b7e d6bd 94ff eabc
000002f0: e445 acbd ff21 9abd 527e c03d 26f3 843d
00000300: f0b3 003d 792c b6bc d467 76bc 989e d7bd
00000310: 0195 413d 8236 16bb 998b c43d 4ace 81bd
00000320: 9989 c2bd e9c7 0bbd 8b47 aebc 0ab4 5c3c
00000330: 8a21 1fbd e140 dbbd 9c36 1a3b a702 ad3c
00000340: 823b bd3d 56da ad3d 54dc 7e3c dbaa 4dbd
00000350: 710e ae3d 54ac 56bd 0f8b 36bd c3c8 bfbd
00000360: c489 dbbd 229d 603d 9b03 24bd d37e e33d
00000370: 5dda 96bd 8f1a 6cbd 6877 c9bd f1cb 8f3d
00000380: f9ac 863d f759 36bd 1d62 553c 0fc7 a8bd
00000390: fcc1 b93d 4a4e 9d3d 4ded f5bc 679f c2bd
000003a0: 9b89 d7bc cf21 ddbd 2db8 853d 4505 973d
000003b0: fbdf bc3c 7b75 a53c d40f 88bd 5e63 a4bd
000003c0: f163 9bbc ae2e 7bbd 4c0b e2bd 7e4c be3d
000003d0: 10d9 9ebd beb8 253d 1747 083d b623 bebd
000003e0: db56 ba3d 9315 563d eba8 de3d e5a8 9dbd
000003f0: e127 563c 4a53 9a3d 3af7 1e3b a3ed b83d
0.10182386 0.06568569 0.120573044 0.15899633 0.031894375 0.13275163 0.09131259 0.16244021
0.09978342 0.18852636 0.07355743 0.16617191 0.15333022 -0.031913027 0.032241922 0.14497158
-0.027530542 0.05362201 -0.018749334 0.17931159 0.12374723 0.029325057 0.18258119 0.091871105
0.063899584 0.09248873 0.012519804 0.003504398 0.02268721 0.053351235 0.1060566 -0.07140323
0.109895445 -0.12050213 0.026429955 0.021693079 0.040637616 -0.11250546 -0.074598454 0.050232463
-0.113017105 -0.11208178 0.021228233 -0.12544802 -0.06589451 -0.11918887 0.053895004 0.006069012
0.08101425 -0.06271176 -0.054998793 -0.031021971 -0.010450441 -0.052043144 -0.0574869 -0.087084934
-0.06284304 -0.16999751 -0.14498046 -0.06826737 -0.16042566 -0.06595292 0.018626358 0.021071922
-0.16378759 -0.06882636 -0.090208806 0.03074693 -0.06413974 0.024913922 -0.18248303 -0.113924876
0.010636966 -0.056062624 -0.20348997 -0.042873632 0.0969386 0.16736284 0.02344534 -0.039609913
0.16417874 -0.032661714 0.028113944 0.1181643 0.04579425 0.15874404 0.10746036 0.10075119
0.16255832 0.04646466 -0.029179545 0.10771273 0.15237363 0.09597088 0.03287948 0.15053327
0.020600438 0.012352569 0.10860904 0.086658485 0.08687628 -0.021162298 0.07834872 -0.034128632
-0.022519743 0.053851116 0.030335631 0.10454694 0.08940421 -0.055996004 -0.117222525 0.0024052572
-0.042268552 0.04492958 -0.044414714 -0.019340834 -0.06263066 -0.106982924 -0.12002174 -0.026612459
-0.10745531 -0.02645546 -0.028909184 -0.11741367 0.012078742 -0.00625805 0.045967072 -0.04806458
0.013362492 0.025432102 0.030064214 0.00487563 -0.10851105 -0.024689313 -0.068450466 -0.09340195
-0.13249244 -0.14134228 -0.09417972 0.010116843 0.037621826 -0.034464058 -0.1109038 0.0063540954
0.042784583 -0.15788123 -0.16899836 0.029916292 -0.104490004 0.042422045 -0.10720496 -0.007817606
-0.09253585 -0.09582005 0.08587315 -0.10783578 0.018497866 0.03132008 -0.07361341 -0.08364565
0.009626933 -0.031967264 0.10886691 -0.027284231 -0.104833394 -0.058771603 0.003707061 -0.03891909
0.014484263 -0.10021818 -0.052710995 0.023533018 0.046228155 0.099107265 0.108628355 0.09695296
-0.060367905 -0.030684233 0.104853205 -0.033205103 -0.0024464729 -0.11246461 -0.07655513 -0.012207456
0.021958346 -0.030254954 -0.10473367 -0.028686322 -0.08411768 -0.075260155 0.09399094 0.064916894
0.0314216 -0.022238003 -0.015039403 -0.10528296 0.04726124 -0.0022920673 0.09596939 -0.06338175
-0.09498901 -0.034126196 -0.021274349 0.013470659 -0.038850345 -0.10705734 0.0023531085 0.021119429
0.09239866 0.0848891 0.01555546 -0.05021177 0.08498848 -0.05241044 -0.04456621 -0.09364464
-0.10719636 0.054837354 -0.0400425 0.11108174 -0.07365868 -0.057642516 -0.09837228 0.070213206
0.06575961 -0.04451939 0.01302388 -0.082410924 0.09070203 0.07680948 -0.03002038 -0.0950306
-0.026310733 -0.10797464 0.06529269 0.07374052 0.023056021 0.02019762 -0.06643644 -0.08026765
-0.018968554 -0.061323814 -0.11037311 0.092919335 -0.07756245 0.040459387 0.03327092 -0.09284155
0.090985976 0.05226667 0.10872062 -0.0769823 0.013071031 0.075354174 0.0024256245 0.090297006

Conv1.bias f4 [16]
00000000: 1f97 4f3c 73e1 1abd 96d6 b1bd ef2d 6dbd
00000010: 6b64 c2bd f720 3a3a 8358 e4bc 2c38 873d
00000020: 5342 1cbd 352c dcbb 8a66 5abd 9cf7 6c3c
00000030: 8f7e 213d 98e7 89bc db60 3d3d 4af7 b0bd
0.012670307 -0.03781266 -0.08683507 -0.057905134 -0.094918095 0.0007100249 -0.027874237 0.06602511
-0.03814919 -0.006719137 -0.053320445 0.014463332 0.039427336 -0.016834065 0.046234947 -0.08640917

Conv2.weight f4 [32, 16, 5, 5]
00000000: 0fe8 753c 871b 233d c499 a6bc ad74 88bc
00000010: e442 1cbd 207f 56bc 333c 443d d291 8cbb
00000020: e65c 3abd 00b1 813c c330 12bd 49fe f2bc
00000030: 74da 043d 955f 093d bfe8 013d e4bd b63c
00000040: 208d 18bd 6d65 acbc 3ef7 91bc ffbc d53b
00000050: 7f33 1bbd a418 3cbd 0342 93bb 304d 6bbc
00000060: 727e 04bd 310e 173d 3938 e0bc 58e2 f33b
00000070: dce4 463d a397 1e3d d400 453b fa94 3bbd
00000080: e1f0 003d 8526 42bd 7921 2abd 338f 5fbc
00000090: e956 1c3d 3cf1 353d ff45 543b e56a 01bc
000000a0: 89ac c03b dd17 bf3b 1118 113d 17ac abba
000000b0: 63f4 2cbd 65f0 6ebc 3fe5 3d3c 0919 3abc
000000c0: c041 453b f7ab 7bba f9f4 3d3d 808d 1dba
000000d0: f42d 023c 0091 0ebb 7103 72bc b380 1bbd
000000e0: ad49 03bd fd7d cbbc b710 313d 58d4 02bd
000000f0: 8f93 1e3d 02e0 38bd b40e 2f3c 9ba6 0e3d
00000100: 8074 ae3b f254 d43c 71fd b8bb b33a c6bc
00000110: ea26 01bd 19eb c13c 92c0 ba3c e1cd 243d
00000120: f517 f33c fc1e 363d 717b 3f3d 4ce2 48bd
00000130: a40c 42bd d980 4f3c 2eb9 f0bc 00d0 393d
00000140: 5add a53c dc7a 3fbd a8e9 b6bc 03f5 363b
00000150: e2f9 393d 8cc9 df3b 564c bc3c b5d8 8ebc
00000160: e7f5 423d ddb3 363d 14fd 743c e42d 133d
00000170: 7393 f7bc 8d7b 69bc 8e0d 8a3c 8fd0 3a3b
00000180: c14a ee3c 339e f4bb 869a 3bbd 0cf7 3a3c
00000190: b1f9 b8bc 9941 29bc f1bd 203d d3cb bb3a
000001a0: ea85 0abd 859b eebc df74 303c f17f 633c
000001b0: 79d3 e0bc 0da6 c03c 9922 a2bc ba26 2bba
000001c0: 1a7a d2bc a941 1a3d e2a4 8a3c a28b dbbc
000001d0: 8861 ad3a e501 1cbd d5b1 35bb 9eff 14bd
000001e0: 478b c43b 0a77 28bd f188 0d3d 8014 efbb
000001f0: 0b10 9dbb bde9 a3bb b233 3bbd 5c43 7a3c
00000200: 62b0 1bbc 054d da3c 51f1 6a3c 5f5e c6bc
00000210: 43ad d2bc 658d 683c 7a66 0fbd 37f2 e63c
00000220: 8b53 343d 5859 48bd 06d7 ba3b c2d0 223d
00000230: 3316 ebbb 355a 3bbd 43c7 ae3a a9e4 283d
00000240: 6374 f63c 3688 ccbc 5a64 1d3d 5099 1a3d
00000250: 0f60 353b 3a21 44bd 5d78 443d bf5a a9bc
00000260: 22a4 883c b725 2fbd 158d 7dbc 8182 e43c
00000270: a6c4 033d 5b4b 363d 2e38 11bc f18b 19bd
00000280: 496d d13c 928e a4bc 3ec3 e83c 37f9 b33c
00000290: 046f 883c 05fc 0bbc a649 27bd c74b a4ba
000002a0: ba91 20bd 73e5 2abd 8b43 c1bb 805b c8bc
000002b0: 809f 6a3c 1eeb 173d deb0 26bc 6b55 443d
000002c0: 266d 3bbd ee39 fabb 3151 4f3c ac1d a4bb
000002d0: b077 823a 26f7 0f3d 7062 073d c221 9ebc
000002e0: 8190 4c3d 00c4 b3bc 3de1 2e3b 084d 2a3c
000002f0: b7ff 0b3d 7301 22bb 3c15 febc c6ba 00bd
00000300: 5c62 e83c 4be4 41bd e226 813c 38b5 033c
00000310: 3c69 fc3c f4f9 2c3d 962b d3bc 483f aebc
00000320: 0d14 06bd 4397 dabc 804c 8abc 5a75 2dbd
00000330: 9af6 383d 41b8 1f3c 114b ae3c 8f58 1f3d
00000340: 4984 7dbc e98e ac3c ca36 be3c d050 9f3a
00000350: 4d40 093c 80c0 2dbd b412 12bd 6e3b 8f3c
00000360: aa16 1139 0c0d a8bc 2385 b4bc 2f8a 36bd
00000370: 95e2 adbc cfc6 3bbc effa 6cbb 238b b13c
00000380: ac1d 6a3a 8e55 463c 75a3 b8bc 3d21 2dbd
00000390: ea2b 4bbd 1e28 a7bb 99eb 38bd 27b7 25bd
000003a0: e76d 063d 3ebb 00bd 6022 263d a001 3fbd
000003b0: c4b9 9cbc decc d5bc 13a0 d0bc 9e99 a9bc
000003c0: 3ef4 4d3c e9a2 213d b336 d43b caa0 193d
000003d0: b87f 463d b974 203d 83b9 fa3b 5ebe eb3c
000003e0: 1dc8 3f3d 7db7 0e3d 349a f7bc 43e4 623c
000003f0: b3e0 05bc 91d7 bebc 29f5 c03c d502 88bc
0.01500894 0.039821174 -0.020336993 -0.016657198 -0.03814973 -0.013091832 0.047908973 -0.004289844
-0.04549875 0.01583147 -0.035691034 -0.029662268 0.032434896 0.03353842 0.031716105 0.022307344
-0.037243962 -0.021044457 -0.01781809 0.006522774 -0.037890907 -0.045921937 -0.004493953 -0.014361665
-0.03234715 0.03687877 -0.027370559 0.0074427538 0.0485581 0.03871883 0.0030060308 -0.045796372
0.03147972 -0.047400016 -0.04153583 -0.013644981 0.03816882 0.044419512 0.0032390354 -0.007899021
0.005879943 0.005831702 0.035423342 -0.0013097551 -0.042225253 -0.014583682 0.011590301 -0.011358508
0.0030099005 -0.0009600515 0.046376202 -0.000601016 0.007945526 -0.0021753907 -0.014771328 -0.037964534
-0.032052685 -0.02484035 0.04322883 -0.031940788 0.03871494 -0.045135505 0.010684658 0.034826856
0.0053239465 0.025919411 -0.005645447 -0.024197912 -0.031531252 0.023671674 0.022796903 0.040235404
0.02967451 0.044463143 0.046748582 -0.04904394 -0.047375336 0.012664997 -0.029385176 0.04536438
0.02024715 -0.046748027 -0.022328213 0.0027917034 0.045404322 0.006829446 0.022985619 -0.017437318
0.047597792 0.044605125 0.014952917 0.035932437 -0.030221676 -0.014250648 0.016852167 0.0028505658
0.02908838 -0.007465148 -0.045801662 0.01141144 -0.02258 -0.010330581 0.039243642 0.0014327712
-0.033819117 -0.029126892 0.010770052 0.013885484 -0.027444588 0.02351668 -0.019791888 -0.0006528903
-0.025692988 0.037660275 0.016924325 -0.02679998 0.0013227919 -0.038087744 -0.0027724404 -0.036376588
0.0059980485 -0.04112915 0.034554426 -0.007296145 -0.0047931722 -0.005002229 -0.045703597 0.015274849
-0.009502502 0.026648054 0.014339761 -0.024214922 -0.025717383 0.014193867 -0.03500984 0.028191669
0.044024985 -0.04891333 0.0057019023 0.03974987 -0.007174277 -0.045740325 0.0013334531 0.041233692
0.030084794 -0.024967294 0.03842578 0.037743866 0.0027675664 -0.04788325 0.04796635 -0.020673154
0.016679827 -0.042760577 -0.015475531 0.02789426 0.03216996 0.04450546 -0.008863492 -0.037486974
0.025564807 -0.020087514 0.028413411 0.02196942 0.016654499 -0.008543973 -0.04084172 -0.001253479
-0.039201476 -0.041722726 -0.0058979443 -0.024457693 0.014320254 0.03708946 -0.010174004 0.047933023
-0.04575839 -0.0076363003 0.012653635 -0.00500842 0.0009953883 0.03514781 0.03305286 -0.019303206
0.049942497 -0.021944046 0.0026684545 0.010394342 0.034179416 -0.0024720102 -0.031015985 -0.03142812
0.028367214 -0.047336858 0.015765611 0.008038811 0.030811898 0.04223056 -0.02577762 -0.02127041
-0.032733966 -0.026683455 -0.016882181 -0.042348243 0.045157053 0.009748519 0.021276029 0.038902815
-0.015473434 0.021064239 0.023219485 0.0012154821 0.008377147 -0.04241991 -0.035662368 0.017484393
0.0001383672 -0.020514034 -0.02203614 -0.044565376 -0.021226207 -0.011460974 -0.003616031 0.02167279
0.0008930813 0.012105359 -0.02253888 -0.042268027 -0.049602427 -0.005101218 -0.04514656 -0.04045787
0.032819655 -0.031428568 0.040560126 -0.04663241 -0.019131549 -0.026098665 -0.025466954 -0.020703133
0.012570439 0.039462004 0.006476247 0.037506856 0.048461646 0.039173815 0.0076515093 0.028777298
0.046821702 0.034842957 -0.030224897 0.013848367 -0.008171248 -0.02329615 0.023554401 -0.016602913

Conv2.bias f4 [32]
00000000: 45a5 90bc 8514 80bd db80 1d3c 140a 1ebd
00000010: fae3 a13c ffcb 41bc 7ae2 5a3c 458c 46bc
00000020: 669c a1bc 3873 05bd d850 9d3c 0a53 e3bb
00000030: 3e08 88bc 39fc 4cbd 3b6e c33c 8c5d 0cbd
00000040: f927 23bd a5c9 d338 0adf 36bd f185 abbc
00000050: 3831 f8bc fa7c 573d 267f 6f3d be3b 923c
00000060: e275 3d3d 65aa 233d 1232 f2bc 911b 703d
00000070: 3707 bb3d 60fd 753d d86e 373d 48cc 12bb
-0.017656932 -0.06253914 0.009613241 -0.03858383 0.019762028 -0.011828422 0.01335966 -0.012118404
-0.019727897 -0.032580584 0.019203588 -0.0069373893 -0.016605493 -0.050045226 0.023856273 -0.0342689
-0.039833043 0.00010098823 -0.0446463 -0.020937892 -0.030296907 0.05260942 0.058470868 0.017850753
0.046255 0.039957423 -0.029564891 0.05862004 0.091322355 0.06005609 0.044783443 -0.0022399593

l1.weight f4 [2, 128]
00000000: b2c0 f53c 62fd d8bc 16c9 18bd 6900 a63d
00000010: 71b0 713d df48 653d 8a99 26bd c3be 8d3c
00000020: 8ddc a3bd 3f36 a2bc b92a 7bbc 7552 a4bc
00000030: 5560 fabc 1c9a f4bc dce9 073d 7f07 013d
00000040: 2352 aa3d 37eb ed3d 20ba b6bd 7360 25bd
00000050: ada1 463d 0bf0 99bd a172 8bbd 0311 1e3d
00000060: ad87 803b 4c97 c13d 4456 6fbd 2fef 0ebe
00000070: dbb0 e33c 96e0 68bd f298 93bd 364e 98bd
00000080: 030c 9b3d 6163 943d 1d0b 0c3d c393 953c
00000090: 38f8 443d be24 973d 6790 9d3d f2e4 043d
000000a0: 3481 683d f738 8bbd 1347 903c 7722 fb3c
000000b0: b2b7 48bd a849 233c 67c0 9f3d 404b b73b
000000c0: 2e19 5b3e bc90 33bc 03d3 e13c c28d fa3d
000000d0: 1219 2abd c337 333d 3c9d b53c 0954 463d
000000e0: 0b1b bfbc b9f7 a8bd 1c7b 633d bb96 85bd
000000f0: 3377 9fbd df84 c9bc 1f34 093c 7c9c babb
00000100: 5c22 3d3d 25f2 673d 5a33 78bc f9d0 fe3c
00000110: 9ed2 2b3e d6ac 443b c8bf 383e cc09 533e
00000120: 8bbc 8cbd d6d3 44bd 2038 99bb 4b4a 37bd
00000130: c6c0 5c3d 0f6d 983c 8ba2 753d b220 84bd
00000140: cecb cb3c 6b2d 883b 480d 303d 2e1f 3cbd
00000150: 1493 053e 4bc9 223d a509 a3bb 0113 6dbe
00000160: 53ea 193e c904 e43d 4429 03be 5bf0 fbbd
00000170: 9319 b83d 7892 833b 47a5 113e 99bc febc
00000180: 2d87 a63d f0fd babc 279c 843c 3e41 f03c
00000190: 4d5f 273e 4306 d23d 0697 91bd 783f 23be
000001a0: fe5e 03bd ab29 193d 4cc4 18bd ff7f 343d
000001b0: a152 a93d ba31 75bb 9f12 d8bb 5ceb a13d
000001c0: fc11 4dbb 6d27 153d 8122 e2bd 3adc 64be
000001d0: 2c4e d2bc 6169 cf3d 1595 14be cd36 3abd
000001e0: 11f1 e0bb 3ba9 b3bc a5dd d4bc a701 1abe
000001f0: d386 3ebd 0e76 70bd 83ca cfbc e196 623d
00000200: 3b75 92bd d924 70bc 44bf 3b3c deac f2bb
00000210: 2b1c 75bd 03dc 5ebd d47d 06bd 5c41 98bd
00000220: 2460 50bd 975f 653d b916 ab3d 84bc aa3d
00000230: 2c90 83bd ad0f 1e3d 0e5a 963d 8bf0 403d
00000240: 0ce9 323d b086 07be 916d 8a3d 5507 4c3c
00000250: 820e 293c 177a 283c 221e 173d 75be 1e3d
00000260: 3d5d e4bd 743e 10be 3dd1 c43c 2f0b 213e
00000270: 155f f23c 0539 9ebd d5d3 79bd 2b0c c6bc
00000280: fb1e 25bd 165f b63a e91f 2c3d 3a28 66bd
00000290: 975f 8abd 5dfc ccbc 4a0a a6bd 96f0 85bd
000002a0: e417 39bd 90f8 60bd 229d 20bb 03e0 523d
000002b0: 04c5 c9bb 83f9 ee3c acd2 b23c 641a 813c
000002c0: aea2 89bd 6e1c f5bd 9e15 33be 7ecd 1abe
000002d0: 1efd 233c 0b6f 9fbd 81bd ac3d 8213 7bbd
000002e0: 795e 613d 3ca1 46bd b12e 133c dff4 fbbc
000002f0: 06ce 92bd 4aa3 4bbd 701d 5cbd 4e1f cfbc
00000300: d36c 8b3d 87a8 06bd 35cc 623d 841b 733d
00000310: 6978 19be c155 83bd c8a1 4dbe 0d2e 4bbe
00000320: 333b 2b3d 808b 593d a5bc 7abc f652 0a3c
00000330: ae62 6d3d 2efc 1c3d 5661 343a ca8f 223c
00000340: 4d61 063d 05f3 4f3d 64e0 453d 440c 843d
00000350: 2ae6 d4bd aa33 1c3c 4e5d b83d 5c0a 683e
00000360: 46d6 fdbd c00f 22be c739 073e e93e 003e
00000370: 7e5d 39bc 241b 733d bd17 04be d84b 173d
00000380: 0a8d 7d3d 3168 933c b419 b33d 0790 7e3d
00000390: fd10 0cbe 314e 17be a0ab d43d abb5 463e
000003a0: a3e3 993d d9b1 91bd 3962 893d c171 d13c
000003b0: cf5c 183d f3b1 a3bc 1a79 83bd b101 c7bd
000003c0: d55f edbd dc95 1bbd a19c c33d f868 613e
000003d0: 26bf 96bd 4fa3 dbbd 1eed c63d 2cec 723d
000003e0: 9070 a2bd d741 a8bd 98f0 e3bd 2d17 0e3e
000003f0: a9eb 80bc 2e4f d8bc 41f4 8c3d e4cd f6bd
0.02999911 -0.02648801 -0.037301145 0.08105547 0.05900616 0.0559777 -0.04067377 0.017302876
-0.08001051 -0.019801257 -0.01533001 -0.02005885 -0.030563513 -0.029858641 0.03318201 0.03150129
0.083164476 0.11617129 -0.08922219 -0.040375184 0.04849403 -0.07516488 -0.06808973 0.038590442
0.003922424 0.09452686 -0.05843188 -0.13958429 0.027794292 -0.056854807 -0.072069064 -0.074367926
0.075706504 0.072455175 0.034190286 0.018258935 0.048088282 0.07380055 0.07693558 0.0324449
0.056763843 -0.067979746 0.017612016 0.030656083 -0.04900331 0.0099662915 0.0780037 0.0055936873
0.21396324 -0.0109598 0.027566439 0.122340694 -0.041527815 0.04375435 0.022169702 0.048419986
-0.023328325 -0.08250374 0.055537328 -0.0652289 -0.07786407 -0.02459949 0.008374243 -0.005694924
0.046175346 0.05662741 -0.015148962 0.031105505 0.16779563 0.0030010245 0.18041909 0.20609206
-0.06871899 -0.048053585 -0.00467588 -0.044748586 0.05389478 0.01860669 0.059969466 -0.06451549
0.024877455 0.004155805 0.042981416 -0.045928173 0.13044387 0.03974275 -0.004975515 -0.2315178
0.15030794 0.11133725 -0.1280871 -0.123017035 0.08989253 0.004015263 0.14223205 -0.03109579
0.081312515 -0.022826165 0.01618774 0.029327985 0.16344948 0.102551006 -0.071088836 -0.1594218
-0.032073013 0.037393253 -0.03729658 0.04406738 0.08267713 -0.0037413673 -0.0065940167 0.07906219
-0.0031291237 0.036414552 -0.11041737 -0.22349635 -0.02567204 0.10127521 -0.14509995 -0.04546242
-0.006864675 -0.021931281 -0.025984595 -0.15039693 -0.046515297 -0.058706336 -0.02536512 0.05531967
-0.07151266 -0.014657223 0.0114591755 -0.0074058613 -0.059841316 -0.05440904 -0.032834843 -0.07434341
-0.050872937 0.055999365 0.083539434 0.08336738 -0.06423983 0.03858917 0.07341395 0.0471044
0.043679282 -0.13234973 0.067591794 0.01245292 0.0103184 0.010283015 0.03689397 0.038755853
-0.11150596 -0.14086324 0.024025554 0.15726922 0.029586354 -0.07725719 -0.060993034 -0.024175724
-0.04031275 0.0013913836 0.04202262 -0.056190707 -0.067565136 -0.02502268 -0.08107431 -0.06540029
-0.0451888 -0.054924548 -0.002450772 0.051483165 -0.0061575193 0.02917171 0.021828972 0.015759654
-0.06720482 -0.11968313 -0.17488715 -0.15117452 0.010009078 -0.07784852 0.084345825 -0.0612979
0.055021737 -0.04849361 0.0089833 -0.030756412 -0.07168202 -0.04971627 -0.05373901 -0.025283482
0.06807866 -0.032875564 0.05537053 0.059352413 -0.14987339 -0.06412841 -0.20081246 -0.19841786
0.041804504 0.053111553 -0.015303765 0.008442631 0.057955436 0.038326435 0.0006880959 0.009921977
0.032807637 0.05076887 0.0483097 0.06447652 -0.10395463 0.009533802 0.090021715 0.22660202
-0.12394385 -0.1582632 0.13205634 0.12523998 -0.011313794 0.059352055 -0.1289968 0.036937565
0.061902083 0.017994018 0.08745137 0.062149074 -0.13678356 -0.14775921 0.10384297 0.19405238
0.075141214 -0.07114 0.067081876 0.025566937 0.037197884 -0.019982314 -0.06419583 -0.097171195
-0.11590544 -0.037984714 0.09551359 0.22012699 -0.073606774 -0.10724508 0.09713195 0.059307262
-0.07931626 -0.08215683 -0.11129874 0.13876028 -0.015737372 -0.026404943 0.06882525 -0.12050989

l1.bias f4 [2]
00000000: eeb4 60bd c0c0 253e
-0.054860048 0.1618681
